results/simple_tag_v2/1/model.pt (torch, 95446 bytes, 24 tensors)

net.0.weight f4 [64, 16]
00000000: 3a8c 1b3e 2928 53be 2f6b ad3f 4b84 88bf
00000010: 0bc8 02bf a949 a93e ea45 61be 152d 71be
00000020: d987 f43f 6477 e6bf 9db1 0a3f c864 be3d
00000030: 6d10 39bf 8d3f d53c 35da 3bbf de74 56bd
00000040: a040 16bf b5f6 8abf 05b0 8f3d 49d0 303f
00000050: dc04 b9bd 64eb 64bf 8af4 733d 0f24 52be
00000060: e8ff b23f 37f6 d53f 8614 993e 30ac 4e3f
00000070: 85cd 9bbf 96a6 0f3e ed00 6cbf 941b adbe
00000080: 0eba 283f dd70 943d bfbf d03e 04e6 febf
00000090: 45cb ad3c fe1c 243f d388 78be ccd6 e33d
000000a0: 9e2f c23f 8254 f5bf 1b2c bc3d a94a 80bf
000000b0: 4c6b 3dbf 8b49 e23d 5973 babe 0041 91bd
000000c0: 42b9 5abf d921 66bf a38a 90bf fbdd a7bf
000000d0: 630f dabe f66a bb3b b9ca a23d 7a6f 5abe
000000e0: 3ff2 a8be 875c dabe e962 51bd 3268 5d3e
000000f0: 9da7 cb3e 6ba0 f73f 61b2 1f3e 1258 1c3f
00000100: 3563 933e ab2a 123f 42d7 49be d1a0 2d3f
00000110: 2422 13be ef36 b53c c0b7 53bd 3e1e d7b9
00000120: af25 ff3e 1632 20be 2a79 2c3e a0e0 c7bb
00000130: 2d6f b8bf 2b0b 75bf b653 09bf a4ae 20be
00000140: 759b eebf 5d14 c8be 88fa ccbf 57f0 02bf
00000150: d278 2c3d 4411 10bf 9c39 ce3e f7e4 37bf
00000160: c240 20bf 0e53 dcbd 9e3b 94be 078b 833f
00000170: 2abb 0a40 b282 f63d 287e 903e 95eb 713e
00000180: 9f1f 313f 6a49 a4be b3a1 473f 12ef 513e
00000190: affd 4bbe 2d61 c13e 959c a6be 20a2 343f
000001a0: 999d 863e 8a0c 623e 968c 073f a0aa 8cbe
000001b0: 5436 85bf d786 efbe 0f61 26bf b44e 6b3d
000001c0: efac bcbe f2d5 f6be 5de8 393e 1e88 8fbf
000001d0: 3d1b 5d3f d009 b3bd c023 ea3e 4562 643d
000001e0: 2e15 5ebf 5cc6 92bd a0a5 7fbe 3451 dc3c
000001f0: a314 843f 0102 ae3e cddc a2bc 4272 723f
00000200: 58b3 3d3f 513e f83e d81b 043f 10a1 223d
00000210: f708 903c 9a15 a93e 1f19 8cbe 4413 413e
00000220: a17b 7f3f d6c0 4ebf 1bc5 d73e fc75 89bd
00000230: b271 6bbe db3a a03d 39fc cabe 3b35 a83e
00000240: 9825 82bc 33a7 ac3e c100 57bd 68f7 afbe
00000250: d073 d73d b3c7 cb3e 29e9 853e 5e6f 413e
00000260: 3eac 0fc0 f45c 03bf 800b 0bbf 8926 9cbe
00000270: 9b7d f23f c632 06bf 8f9f 473f 974f e5bd
00000280: 1630 943c c09b cd3e 5226 a83c 9d91 c7be
00000290: bb96 c03d 1d79 043d 207c 7c3e affd d3bd
000002a0: 749b f13d 78e0 283e 2746 bb3c eb07 e93d
000002b0: cc07 b7bd 673d 3dc0 a5a1 af3e 5a8b 5cbf
000002c0: b6ab 093d 96fe e53c d5c4 3e3b 1451 3f3e
000002d0: 1ce7 3abe c3f4 333e 821b 943d 75c7 f33e
000002e0: b242 76be cf6c 95be 7dcd 73be bc05 01bf
000002f0: 2960 9dbe a280 ad3f ae99 a5be 9278 933e
00000300: 9e92 e73d 702a d0bc 1532 753d 3668 863f
00000310: a959 043e 8abb 74bd 7e93 f6bd db90 1ebd
00000320: a1fc 80be f818 31be 86e1 f6be a720 e03f
00000330: 2b8f 023f b8d4 05bf 138e 8f3e 31be 483e
00000340: 785b d73e d8ee d13f c9d5 b53e 4284 183e
00000350: a064 013d b841 92bd 48df b23d de20 0abe
00000360: a424 f13d 6401 513e 97e2 15bd 3d84 ef3c
00000370: 118f a6bf db2d e7c0 36a0 9ebe e6b5 e3bf
00000380: 08f4 453e 8da1 803e 87ee 38bf cd41 5e3f
00000390: a9be a9be 76d1 2bbe 50c8 e03c f749 a7be
000003a0: aa32 38be 5bbe d43e 10d9 aebd e1ba f63e
000003b0: a965 50bf 71dd 1e3f 26c2 5ebe 3c2e 223f
000003c0: be08 19bf acf5 44be 1793 403d ea99 b93f
000003d0: f493 dbbb 131f 7e3d 1427 613e 7e70 86be
000003e0: ab8c 32bf c1ff b63f 620b dfbd 2a72 b53e
000003f0: 4e3c 073f 3e57 bbbd cfba 383e 4df7 173e
0.15190211 -0.20620789 1.3548335 -1.0665373 -0.5108649 0.3306401 -0.21999326 -0.23552354
1.9103957 -1.8005185 0.54177266 0.09296566 -0.7229069 0.02603128 -0.7337983 -0.052357547
-0.5869236 -1.0856539 0.07015995 0.6906782 -0.0903413 -0.8942168 0.059559382 -0.20521568
1.3984346 1.6715764 0.2989847 0.8073149 -1.2172095 0.14028391 -0.9218891 -0.33810103
0.65908897 0.072480895 0.4077129 -1.9913945 0.02121509 0.6410674 -0.24270944 0.11124954
1.5170782 -1.9166415 0.091881 -1.0022784 -0.7399185 0.110491835 -0.36416128 -0.07092476
-0.8543893 -0.898954 -1.1292309 -1.3114618 -0.42589864 0.005719538 0.079488225 -0.21331587
-0.3299732 -0.42648718 -0.05111972 0.21621779 0.39776316 1.9345831 0.1559539 0.61071885
0.28786626 0.57096356 -0.1971102 0.6782351 -0.14368492 0.022120921 -0.05168891 -0.00041030528
0.49833438 -0.15644106 0.16843095 -0.0060997754 -1.4408928 -0.95720166 -0.5364336 -0.1569162
-1.8641192 -0.39078036 -1.6013956 -0.5114798 0.04210741 -0.56276345 0.40278327 -0.7183375
-0.6259881 -0.10758029 -0.28951734 1.0276803 2.1676736 0.12036647 0.2822125 0.23625024
0.69188875 -0.3208726 0.7798111 0.20501354 -0.19920991 0.37769452 -0.32541338 0.70559883
0.26292112 0.22075096 0.5294889 -0.27473927 -1.0407205 -0.46782562 -0.6499185 0.057448104
-0.36850688 -0.48210102 0.18155046 -1.1213415 0.8636969 -0.08742106 0.457304 0.05575778
-0.8675107 -0.0716674 -0.24965525 0.02689419 1.0318798 0.33985904 -0.019880677 0.94705594
0.7410178 0.48485044 0.51604986 0.039704382 0.0175824 0.33024293 -0.27362916 0.18855006
0.9979802 -0.80762994 0.42142567 -0.06711957 -0.2299259 0.07823726 -0.39645556 0.32853112
-0.015887067 0.33721313 -0.052490953 -0.34368443 0.10520136 0.39800796 0.2615445 0.1889014
-2.2448878 -0.5131371 -0.5431442 -0.3049815 1.8944582 -0.52421224 0.7797784 -0.11196821
0.018089335 0.4015789 0.020526085 -0.38978282 0.094037496 0.032342065 0.24656725 -0.10351121
0.117972285 0.16491878 0.0228606 0.11378463 -0.08937034 -2.9568727 0.34303012 -0.86150134
0.033611022 0.028075498 0.002910902 0.18683273 -0.18252224 0.17573838 0.07231809 0.4761311
-0.2404888 -0.29184577 -0.23808856 -0.50399375 -0.30737427 1.3554881 -0.3234381 0.28802925
0.11307262 -0.02541086 0.059862215 1.0500553 0.12924828 -0.059749164 -0.12039851 -0.038712364
-0.2519274 -0.17294681 -0.48218936 1.7509965 0.50999707 -0.5227771 0.28038082 0.19603802
0.42061973 1.6401014 0.35514668 0.14894202 0.031590104 -0.07141441 0.08733994 -0.134891
0.11774567 0.20410687 -0.036593046 0.02923786 -1.301241 -7.2243476 -0.30981606 -1.7789886
0.19331372 0.25123253 -0.72238964 0.86819154 -0.33153275 -0.16779122 0.027439266 -0.32673618
-0.17988077 0.4155148 -0.08537495 0.48189452 -0.8140512 0.6205664 -0.21753749 0.633518
-0.59778965 -0.19234341 0.047015276 1.4500096 -0.006700987 0.062041353 0.21987563 -0.262577
-0.6974589 1.42968 -0.10890843 0.35438663 0.5282639 -0.091474995 0.18040012 0.14840432

net.0.bias f4 [64]
00000000: bb13 a2bf 2a77 8fbf 7243 81bf aee5 36bf
00000010: 05a2 36bf 59bb 5cbf b0c6 edbe 158c 16be
00000020: a6c3 5ebe 17a6 32bf 38be e3be b809 96bf
00000030: b5e0 e5bf c57f f13c 1a8d ec3e c68e c1bf
00000040: c551 58bd 94f4 debf 580f 42bf 77f9 7bbe
00000050: eef3 c43d 184d 4cbf 2c61 2f3e d6a3 86be
00000060: 198c 6fbf 9592 0cc0 ae5e c4bd e983 15bf
00000070: 46c6 a2be bf7d 22bf a8ca 01c0 fa81 76bf
00000080: 7b17 a4bf 71d3 9dbf 2f09 9cbf 1f0f 3cbf
00000090: f1be 05bf 7e6d ce3f 6e18 d6bf 91f3 9abe
000000a0: a9b6 99bf a68c eebf 19c6 3abd 8133 bbbf
000000b0: 74e8 44be 5fa6 4cbf d4d8 6fbf 1c57 21bf
000000c0: 7102 a2bf ec19 9dbe a78a ff3e da7a 2d3f
000000d0: dbd9 97bf 6402 93bf 0c27 86be 9e19 dc3e
000000e0: 95b8 6cbf 53a6 eebf 529c 04c0 cf36 b4be
000000f0: 36d8 a43f e72b 82be f7fe bf3f f7e2 95bf
-1.2662271 -1.1208241 -1.0098708 -0.71444213 -0.7134097 -0.8622337 -0.4644065 -0.14701875
-0.21754321 -0.69784683 -0.44481063 -1.1721716 -1.79592 0.02947987 0.46201402 -1.5121696
-0.052812357 -1.7418389 -0.7580466 -0.24606882 0.096168384 -0.79805136 0.17126912 -0.26296872
-0.9357315 -2.1964467 -0.09588371 -0.58404404 -0.31791896 -0.63473123 -2.0279942 -0.9629208
-1.2819666 -1.2330152 -1.2190303 -0.7346057 -0.5224448 1.6127164 -1.6726205 -0.3026395
-1.2008868 -1.8636672 -0.045599077 -1.4625093 -0.19229299 -0.7994136 -0.9369023 -0.63023543
-1.2656995 -0.3068384 0.4991047 0.6776558 -1.1863359 -1.1485105 -0.26201665 0.42988294
-0.9246915 -1.8644508 -2.072041 -0.35198066 1.2878482 -0.2542412 1.4999684 -1.1709889

net.2.weight f4 [64, 64]
00000000: 37ea acbe d290 25bf 4b02 4dbf 45fd 09bf
00000010: a4c3 81bf db61 093f 2f20 39bc aebf 9f3d
00000020: d1a4 073f 9e7f bebf ea65 063e 4e44 1ebf
00000030: a318 8dbe f7aa db3d 6b40 ea3e cfb2 5abf
00000040: 59b0 d3bf 0c13 c8bf 3d61 c6bf 020c 39c0
00000050: 427e 0f3f ecf4 a0be 2cf4 ecbc 0aea 88bf
00000060: 6dfe 0ebe e950 b3bf e645 603e c24d 1ac0
00000070: 23d5 883f 1528 363d 95ab 24be ccd3 bfbe
00000080: a184 583f 85aa 80be d56e 35bf a868 073f
00000090: fe58 f1be 2b15 b8be 817e 103f bf5a e7bd
000000a0: 59f5 5fbf db87 4d3d e3b9 823f 726b 15bf
000000b0: c8d0 d8be 7358 cd3e b527 0b3f a805 2fc0
000000c0: 36da ca3e decc 9bbe 2527 703f d6b9 dfbe
000000d0: 9b54 13bf 0110 3fbe 7b84 8fbe 4377 56c0
000000e0: 325e 873b 77c0 77bf 61f3 0b3f 9f85 1d3f
000000f0: 6a9c 703f 9ae7 61bf b54d d93e 5d8b 12bf
00000100: e006 9fbd 7513 46be 6690 09bd 6096 23bc
00000110: 47ea e8bd 006b ddbd f579 d1be 4b5e 913d
00000120: e4af 7e3d 0a9e 97be d8e7 a4be f3c7 073e
00000130: 0c60 a0be 044c 31be 010b 5ebe 980e 81be
00000140: 3163 abbe d3b3 433e ab1f efbe 7837 9cbe
00000150: c96f dabd 1769 8cbe 77ff 90be 1037 21be
00000160: 1aed cfbd 4ac8 2dbe a377 56be af58 583d
00000170: bd60 e7be fdad 8dbe d8c5 e0be 9895 d4bd
00000180: 2294 213d f78f 45be ea6d 2cbf 1a5e 8cbe
00000190: e34b dbbd 6758 51be 1be4 81be d545 a0be
000001a0: 534b bcbe bd00 a23d 0ea5 e13d 51ad 3e3d
000001b0: 5147 91be 3622 5abc c2b2 26bc 75ea 8abe
000001c0: 0264 36be 367f 51be f42f a5be 3d9d 48be
000001d0: 5722 eebe c0f3 1ebe d232 6fbe 8b3e d5be
000001e0: 3ec1 e5be aa4e a63b 9bad 2ebd d75d 73bc
000001f0: 9e9f 123e 17f7 50be 2430 6cba 1736 51be
00000200: 7007 cebf 536d c6be 43ed c63e 4156 46bf
00000210: 883a 4dbf d941 343e d5ab 183f 86e0 b03e
00000220: 20d5 d83c f6b1 73bf 3000 42c0 159d 01bf
00000230: 94cf dd3e afab 25c0 a2e6 753f 8966 0e3f
00000240: f5a3 e63e 4fa0 d4bf d5fa 71bf ccd7 c63d
00000250: c2b4 8c3f 86c9 48be 1c6b 423c 367f 52bf
00000260: a7b5 ed3e ade1 89be ba30 33bf 9cf8 aabd
00000270: 5431 933f 33c1 90be 9b04 893e 65ec 303f
00000280: fcec 14bc cf40 0ebd 0baf e73e 9e3e 90bf
00000290: 7eb4 363f d5b5 793e 1c05 01bf cad4 5a3f
000002a0: 7d7d 98be 41d1 c0bf c685 a53e a33f 7cbf
000002b0: 5eec 883e 661f 6ebf 79d5 22be d25d 7dbf
000002c0: 63ac 013e 799e 49c0 fd43 c0be 9846 7bbf
000002d0: 15f9 e0bc 1142 953d 1f75 07bf 5404 86be
000002e0: 428c 0f3e 0da8 46bf 5d92 56be 12ca d2bb
000002f0: 1aec 1a3e d9f6 283f f717 38be 67d6 4fbf
00000300: 26dd 6cbf 53bc 65bf 2399 a7be 09cd 7d3e
00000310: 94ee 983e c7d0 a5bf 1d47 60be 9209 b0be
00000320: e934 043f 0669 d1bf 23d4 afbe 8198 2cbf
00000330: 2850 73bf 0fde 92be 734f aebe ef59 64bf
00000340: bb52 32bd 8851 b53e b71a 563f 3834 d9bf
00000350: 9303 1dbf b23b 62be 8dc4 27bf 3459 52be
00000360: 5bb9 6dbc e10b 23bf 0a90 693e f727 a03e
00000370: 5141 9cbf 4483 2c3e e85b 94bf 0546 bdbe
00000380: 3769 fbbe f923 38bf 2e20 86bf 834d a8be
00000390: 18a9 85bf ccf9 b23e d6e4 38bf 0a5e 20bf
000003a0: b0a9 9fbf 8151 47bf 2267 81bf ddf5 fbbf
000003b0: d282 303e 4ec0 f0be 94d8 a5bf c665 30bf
000003c0: d37f e3be 14d5 c4bd dd50 663e bb46 47be
000003d0: bb75 82bf b5b1 92bf b71b 313e 589a 53bf
000003e0: 5ab0 14bf 76f7 3ebf 0c0d 80bf 0050 07c0
000003f0: dd44 f03e 7662 16bf c63f 9abe 6589 22bd
-0.33772442 -0.64674103 -0.80081624 -0.53902084 -1.013783 0.5366494 -0.011299177 0.07800232
0.52985865 -1.4882696 0.13124815 -0.61822975 -0.2755786 0.10725968 0.45752272 -0.8542909
-1.6538192 -1.5630813 -1.5498425 -2.891358 0.5605203 -0.3143686 -0.028925024 -1.0696423
-0.13964243 -1.4009067 0.21901664 -2.410996 1.0690044 0.04447182 -0.16081078 -0.37466276
0.84577376 -0.25130096 -0.7087224 0.5289407 -0.47138208 -0.3595365 0.5644303 -0.11296605
-0.87483746 0.05017839 1.0212978 -0.58367074 -0.42346787 0.40106544 0.54357463 -2.7347202
0.39619607 -0.3042974 0.9380973 -0.4369647 -0.5755097 -0.18658449 -0.28030762 -3.3510292
0.004131102 -0.96778053 0.5466824 0.61532015 0.9398867 -0.8824402 0.42442098 -0.572439
-0.07764983 -0.1934336 -0.033584975 -0.009984583 -0.1137281 -0.10811424 -0.40913358 0.07098063
0.06217946 -0.29612762 -0.32208133 0.13259868 -0.31323278 -0.17314154 -0.21683885 -0.25206447
-0.33474115 0.19111566 -0.46703848 -0.3051107 -0.106658526 -0.27423927 -0.28319904 -0.15743661
-0.101526454 -0.16970935 -0.20944075 0.05281895 -0.45190993 -0.27671805 -0.43900943 -0.10380095
0.03944791 -0.192932 -0.67355216 -0.27415544 -0.107078336 -0.20443879 -0.25369343 -0.31303278
-0.36776218 0.07910297 0.1101781 0.046552006 -0.28374723 -0.013313821 -0.010174455 -0.27132002
-0.17811587 -0.20458683 -0.32263148 -0.19591232 -0.46510574 -0.15522671 -0.2335923 -0.4164928
-0.44873995 0.0050752955 -0.04264603 -0.014853916 0.14318702 -0.20406757 -0.0009009859 -0.2043079
-1.609602 -0.38755283 0.3885289 -0.77475363 -0.80167437 0.17603244 0.59637195 0.34546298
0.026468813 -0.9519342 -3.0312614 -0.50630313 0.43322432 -2.5886037 0.9605504 0.55625206
0.45046964 -1.6611422 -0.94523364 0.09709129 1.0992663 -0.19608125 0.011866357 -0.8222536
0.46427652 -0.2692999 -0.69996226 -0.083482 1.1499429 -0.282724 0.26761326 0.6911071
-0.009089705 -0.034729775 0.45250735 -1.1269109 0.7136916 0.2438577 -0.5039842 0.8548094
-0.2978324 -1.5063859 0.32328624 -0.985346 0.26742834 -0.9301666 -0.15901746 -0.98971283
0.12663417 -3.1502974 -0.3755187 -0.9815459 -0.027462522 0.07287992 -0.5291309 -0.26175177
0.14018348 -0.77600175 -0.2095427 -0.00643278 0.15129128 0.6600166 -0.17977892 -0.81186527
-0.92524946 -0.89740485 -0.32734022 0.24785246 0.2986952 -1.2954339 -0.21902128 -0.34382302
0.51643234 -1.6360176 -0.34341535 -0.674202 -0.95044184 -0.28685042 -0.3404499 -0.8919973
-0.04353593 0.35413766 0.83634514 -1.6969061 -0.6133358 -0.22093084 -0.6553429 -0.20541841
-0.014509524 -0.6369 0.22808853 0.3128049 -1.2207433 0.16846949 -1.1590548 -0.36967483
-0.4910371 -0.7192989 -1.047857 -0.32871637 -1.0442228 0.34956205 -0.72224176 -0.6264349
-1.247366 -0.7785874 -1.0109599 -1.9684407 0.17237404 -0.47021717 -1.2956719 -0.68905294
-0.4443346 -0.09610954 0.22491784 -0.19460575 -1.0192178 -1.1460482 0.17295729 -0.82657385
-0.5808159 -0.74596345 -1.0003982 -2.1142578 0.4692754 -0.5874399 -0.3012678 -0.03968181

net.2.bias f4 [64]
00000000: fa59 6f3f af98 a1bd 41ca 8cbf 684f aa3d
00000010: 9c9b b3be ad4a 69be 1161 f83e 1e16 2b3f
00000020: 4adb 61be f7e9 863f 9b54 343f a2cf ddbd
00000030: 98e2 903f 3a0e 9b3e 598e e03d 917d 463f
00000040: b4fc c43d 3540 823f 5740 39be d24f 663f
00000050: b021 003f e6ea ee3d c615 5c3f e942 88bd
00000060: d433 a43e cdbc cbbf 68fe 7d3f 02c5 673f
00000070: 2a5a 8b3f 175e 1abf 6951 183f 8854 6a3f
00000080: 3eba b83f 8e35 1f3f 28ea 3140 f339 fb3f
00000090: 83a0 b53f ec31 0abe fa75 fc3f 2dc8 d03e
000000a0: 6772 e13f 9a07 563f 4a3d 4c3f 333c 663f
000000b0: e4d1 6d3f 1f47 5a3f 976c debd 5367 b1bf
000000c0: aa81 a7be d862 d13e db84 56bd ebfd 683f
000000d0: 3dfd 03be 7f0d 2a3f 0396 a33f 07da 233e
000000e0: 07a8 813f b6cd dd3f c7d3 483f 3d24 333e
000000f0: 7934 9a3e 4744 8a3f 14d2 b23f f4ae 86bf
0.9349667 -0.0789045 -1.0999223 0.08315927 -0.35079658 -0.22782393 0.48511556 0.66830623
-0.22056308 1.054015 0.704416 -0.108306184 1.1319151 0.30284292 0.10964651 0.7753535
0.09618512 1.0175844 -0.1809095 0.89965546 0.50051403 0.11665897 0.85970724 -0.06653387
0.32070792 -1.5916992 0.9921632 0.90534985 1.0886891 -0.6029982 0.5949922 0.91535234
1.4431837 0.6219109 2.7799168 1.962706 1.4189609 -0.13495606 1.9723504 0.40777722
1.7613038 0.8360535 0.7978102 0.89935607 0.9289839 0.8526477 -0.108605556 -1.3859657
-0.32716113 0.40895724 -0.052372795 0.9101245 -0.12889571 0.66426843 1.2780155 0.1600114
1.0129403 1.7328403 0.78448147 0.17494293 0.30118158 1.0802087 1.3970361 -1.0522141

net.4.weight f4 [5, 64]
00000000: 8137 aebd 9749 55bd 5662 cd3d d4bf 9abd
00000010: 62e3 e5bd a481 873a 026e e0ba a16d 323c
00000020: 7e47 f0bd 6236 873c 38cb 013e 01cb a9be
00000030: a701 b73d 3616 6f3f 7ac0 163d 5e04 5fbd
00000040: a0d1 27bf 6386 913c 8770 1c3e 54b4 e43c
00000050: 1d27 5bbe 460f df3c 3d79 32be 185b 843c
00000060: 8f50 4bbe c16c 18be 9b02 2d3d 9ecf a03d
00000070: 4982 3dbd 95f0 05be 4b49 e63d 7701 efbd
00000080: a901 c23d f2da 4e3d 5cc4 b5bb 3a11 0ebc
00000090: f3d0 b93d c817 a3be 1441 3abd bae3 d13d
000000a0: 10fc 1f3c c6f9 e03b 7d5e bd3c 942e 553b
000000b0: 0a52 353e aac1 a8bb 2582 b9be 8a94 473d
000000c0: 2112 3abe 7326 27bd f43a 50be abd6 9a3d
000000d0: 8ea1 bc3e 1d38 05bd e2cc b4bd 24c6 d2bb
000000e0: b466 163e 1b9b 23bd 4996 7fbd bda9 753c
000000f0: 7796 033d f362 173b 3ea6 c43d eece ad3c
00000100: 1bdb e4be d8b6 f23d 07a2 903e 3f23 d13e
00000110: 4067 483d b769 45be ca39 d03e e84c 033e
00000120: 408c eb3d b970 fa3e 62c4 563f c7c8 f93a
00000130: 2f52 bcbe d70a 14bf e0d6 a93e 74cd c03d
00000140: 468b fa3e 9737 e83e 613f 093f 2bc5 0f3f
00000150: 0831 8f3f bafa e43e 8715 7a3e efe3 b23d
00000160: ee4d 0fbf 9ce2 7bbf b22e 4bbe 8826 bfbe
00000170: 4172 efbe 5be3 593e 93db a63e 7c2f 29bf
00000180: ea34 7d3e 2a20 e3be fe4b 41bf 363f dfbe
00000190: 95b4 123f 8fdd 7a3e c37e 51bd 885f 89be
000001a0: 13ed e13d 2962 2fbf ad8f 723e 2fb1 23bf
000001b0: f547 4f3f b143 de3e b8c2 433f 938d 473e
000001c0: 51ab 0f3f 9dbb c33e 7c6b 32be 121f 04bc
000001d0: 2160 b5be ae28 c3be 245f 04bf ee4c f93d
000001e0: 9805 20be dcd0 15be 154d ccbc a07d f6bd
000001f0: 6d2c 65be e5a5 1a3e d048 0cbf 03e3 33be
00000200: 0805 1b3e 3b99 1abd e25d 68bd 5925 b4bd
00000210: 16ab d5bd f770 943e 5676 3b3e 590e 1d3d
00000220: b872 9abd dc87 80be c7c9 a7be 3114 7b3e
00000230: fe0b e63c d0b6 4ebe b805 1d3e 0852 e4bd
00000240: e003 233f 22b6 a2bd 5cad b6be 0555 4dbe
00000250: 977c b1bd d565 d5be 8575 29bf 8082 f93d
00000260: 614e 4d3f 0935 c53e 4273 713c 8efd bebb
00000270: 3615 d6bd 1fb2 9fbd 5025 8d3e 99e7 e7bc
00000280: 2921 2a3f fe20 353f 7fc9 453f b705 24be
00000290: 4168 6fbe aa2d a6be 3045 bbbc 6f35 fe3b
000002a0: 02db 3b3f 7d2f 37bd 9e97 2ebe 0572 a23c
000002b0: e68f c43d cd4e 1e3e d0aa f0be 1803 023d
000002c0: c605 e4bc ffd5 f83d d84c 6bbe 05b4 003e
000002d0: 1ed4 8b3b e042 d93d 58c7 193e d497 c4bd
000002e0: 5679 0a3d 76fa 5f3e 093a 9ebe eb87 c4bd
000002f0: 7a68 12bf 9359 19be 712c 723f 271a 64bd
00000300: 39db a0be c2d7 42be 55b0 b03d 4d7e 253d
00000310: 9118 91bd fea4 313e c665 233d 8aa5 c03d
00000320: 19a1 49be 2bac 26bd d756 cbbd 342f 31be
00000330: dd98 953e d5b2 bb3d 6157 b6bd a53a 593e
00000340: 9222 823e 6c53 8ebe c4b2 fc3e b8d6 0dbe
00000350: 0445 6a3e 9522 8d3c da4b c7be 7b14 cb3d
00000360: 0b77 9dbe ca47 0c3e b257 c5bc 08df 1b3e
00000370: d0d5 183e e8e0 00be d632 06be 8c0e 813f
00000380: 7b3e a4be 3453 4cbe 485a 4e3e e28f a7bd
00000390: 6cab 2abe d8ce b4be c582 7dbe b3df ea3d
000003a0: 3116 bdbe 12c5 fabc 24cb 4e3d 6f1e 173e
000003b0: 64a2 2e3e c363 033e 4716 07be 89d5 53be
000003c0: 52d1 963e a320 373d b7ce 543e c032 a43d
000003d0: f66a c8be 1264 99bc 2220 4bbe 922f a13d
000003e0: 912d 5cbe a744 45bf 7dad 15be 03e6 c23e
000003f0: 7e76 4ebe 4d22 c43e 4dd3 30bd b00f a8be
-0.0850668 -0.052072134 0.10028522 -0.075561196 -0.112250105 0.0010338319 -0.0017122629 0.010890395
-0.11732386 0.016505424 0.12675178 -0.33162692 0.08935862 0.93393266 0.036804654 -0.054447524
-0.6555424 0.017764276 0.15277301 0.027918018 -0.2140164 0.027228963 -0.17429061 0.016156718
-0.1985495 -0.14885236 0.042238813 0.078521 -0.046266828 -0.13080056 0.11244448 -0.11670201
0.09472973 0.05050177 -0.0055470895 -0.008671099 0.09073057 -0.3185408 -0.04547222 0.102485135
0.009764686 0.006865713 0.023116345 0.0032528983 0.17707077 -0.0051500397 -0.36232105 0.048725642
-0.18170978 -0.040808152 -0.20334989 0.07560476 0.36842006 -0.032524217 -0.08828141 -0.0064323116
0.14687616 -0.039942842 -0.062399182 0.014994082 0.032125916 0.002309975 0.09602021 0.021216836
-0.44698414 0.11851281 0.28248617 0.40847203 0.048926592 -0.19278608 0.4066909 0.12822306
0.1150136 0.48914126 0.83893406 0.0019057029 -0.3678145 -0.5782904 0.3317175 0.09414187
0.48934382 0.45354912 0.53612334 0.5616023 1.1186838 0.4472254 0.24422275 0.08734881
-0.55978286 -0.98392653 -0.19842032 -0.37334085 -0.46766856 0.21278135 0.32589397 -0.6608808
0.24727216 -0.44360477 -0.7550658 -0.43602914 0.57306796 0.2449858 -0.05114628 -0.26830697
0.110315464 -0.68509156 0.2368762 -0.63942236 0.8096917 0.4341102 0.7646899 0.194876
0.56120783 0.38229075 -0.17423815 -0.008064048 -0.35424903 -0.38116974 -0.51707673 0.12172876
-0.15627134 -0.14630455 -0.0249391 -0.1203568 -0.22380228 0.15102346 -0.54798603 -0.17567067
0.15138638 -0.03774379 -0.05673016 -0.08796186 -0.10433023 0.28992435 0.1830686 0.03834376
-0.07541412 -0.25103652 -0.3277113 0.24519421 0.02808189 -0.20186925 0.15334213 -0.11148459
0.6367779 -0.07944895 -0.35679138 -0.20051964 -0.08666342 -0.41679254 -0.66194946 0.12183094
0.8019772 0.38517025 0.014736952 -0.005828566 -0.104532644 -0.07797646 0.2756753 -0.028308677
0.6645685 0.7075347 0.77260584 -0.16017805 -0.23379613 -0.32456714 -0.02286014 0.0077578346
0.73381054 -0.044723023 -0.17050025 0.01982976 0.09597759 0.15459748 -0.4700532 0.03174123
-0.027834784 0.121501915 -0.22978532 0.12568672 0.0042672297 0.106084585 0.1501745 -0.095992714
0.03380712 0.21872887 -0.30903652 -0.09596237 -0.5719067 -0.14975576 0.9459906 -0.055689003
-0.31417254 -0.19027618 0.08627383 0.040403653 -0.07084764 0.17348096 0.03989198 0.09406574
-0.1969036 -0.040691536 -0.09928673 -0.17303163 0.29218188 0.09164969 -0.08903385 0.21213777
0.25417 -0.2779802 0.49355137 -0.1385144 0.2287789 0.017228404 -0.38925058 0.09916016
-0.30754885 0.1369926 -0.024089668 0.15221798 0.14925313 -0.12585795 -0.1310533 1.0082564
-0.3207892 -0.19953614 0.20151627 -0.0818174 -0.16666955 -0.3531406 -0.24756916 0.114684485
-0.36930993 -0.030611549 0.0504867 0.14757703 0.17054135 0.12831025 -0.13192092 -0.20686926
0.29456574 0.04470886 0.2078198 0.08017492 -0.39144105 -0.018724475 -0.19836476 0.078704014
-0.21501757 -0.7705788 -0.14616962 0.3806611 -0.20162389 0.3830742 -0.043170262 -0.3282447

net.4.bias f4 [5]
00000000: f1bf 17c0 efd7 c83f 0372 58be 03ca 46bf
00000010: 14cf 233d
-2.3710902 1.5690898 -0.21137242 -0.77651995 0.039992407

net.0.weight f4 [64, 16]
00000000: 4d5e 973e d548 63be 0ca7 85bd 64b6 1bbf
00000010: ae88 82be f552 9d3e 2d31 803e fa30 89bd
00000020: f289 0240 90f3 febf 5674 433e 08b6 523d
00000030: 2792 c7bf c334 763f c427 8bbe f95f 47be
00000040: 8225 92be c078 fc3e eeba a7bd 62c0 923f
00000050: 94de ea3e 5272 8f3d 95ff 12be 3731 3bbd
00000060: cc06 483e 9d8b 8e3f a80e 13be b69d 3ebf
00000070: 168b 333e 9bda ceb9 0abd 4fbe 8f23 97bd
00000080: 8c3b 0640 4432 323f fbab 203e a492 c8bd
00000090: 4de4 88be 4864 b43d 1bc6 3cbd 5055 b53d
000000a0: a27b 043e 6dd6 48bd 7322 03be 872a 17be
000000b0: 84b6 cfc0 46e7 dabf 9889 eebf 60f0 4abf
000000c0: 1f35 593f 8b45 643f 8cb3 ddbe 78b9 f1be
000000d0: cd42 ddbe 4935 773e 8937 cebe ae67 07bf
000000e0: c3b0 afbf f2e1 a4bf 2c60 a03e 86b9 0e3f
000000f0: f797 babf ba3a 15be 0e85 77bf 2e73 bdbe
00000100: bce3 a73e 1e70 bdbf 6e1e 8c3f 0e48 09c0
00000110: 3ed2 b6bf 46fa 4a3f 81b1 99ba 223c 133f
00000120: a5c7 023f 8299 0dbf 94c9 d63e a65f 173f
00000130: 3d41 0abe d8dc 833f dc84 903e 59df aa3c
00000140: 4c41 c43f c388 dbbf 9f17 833f af74 b2bf
00000150: 4a22 32bd e193 273f 4bb6 7d3d 2e51 783e
00000160: 406b 093f 01ac 32bf 969d 063f d2ad 8dbe
00000170: 44d4 26c0 90ff dd3f afb6 8dbf b5af 613f
00000180: 15da 69bf 839a 4c3f c9bd b03b 58e2 633f
00000190: 302f 7abe fd0f 18bf 0f96 3cbe 8128 9cbd
000001a0: 4042 0c3f 3776 7d3f 052a 243f e78d 14bf
000001b0: 7db9 8ebf 88c9 933e ba38 83bd ed46 833e
000001c0: 0c69 33be 7943 26bf e61c 78bf 3026 c13e
000001d0: 938e d43d 0502 f2bd a280 be3e ee45 9dbe
000001e0: 69ce f6be 4148 503f 1628 abbf c3d6 bc3e
000001f0: ec1b 233e 80e3 ecbe 7f8c d33c ac94 10bf
00000200: 1487 9cbe 041a 13bf e518 6abf af71 30be
00000210: b946 05bf bd6f 3cbe 53f5 833f c513 a13c
00000220: bd51 b1bf 2cf7 0dc0 5a29 7cbe ff72 333f
00000230: c538 3f3f cbd7 bd3f ea42 1a3f 944f 923e
00000240: b3e2 acbe c12c 853f 2694 87be 9ef3 cf3e
00000250: d814 a83d e962 a03e 3743 e43e 26c7 733f
00000260: e195 5c3f b845 303e 60b9 5ebe 78f2 cc3e
00000270: e305 c8bf 8833 abbf c71a 8bbf 93a7 a0be
00000280: 1f6d 8dbd d0d2 8c3e fa32 173f f5e4 1240
00000290: f108 283f 90a8 22be 653b 2bbf f1a8 803e
000002a0: ce44 0c3f c5b7 7c3f d9e9 cabe b827 59bf
000002b0: 2984 5a3e 2808 803f fcf4 26be f06f d93e
000002c0: 97c2 61bf 11b0 e43e 8c47 93be 9393 b63c
000002d0: a495 813e 7e3e 9ebe cbc5 1ebf 6205 f4be
000002e0: 5194 5fbf f2ee 1f3f 41b9 083e 85c2 69bf
000002f0: bc65 fbbe 84a8 8b3e fe84 b3be 03e2 0e3e
00000300: 688c 8cbf 462a 183f 30c9 61bf d3a2 57bd
00000310: 01a4 1f3b 562a a3be adb0 a9bb 6e2e 84be
00000320: 8d28 04bf 7d62 93bd 35b6 163e a836 743f
00000330: f9ff e03f 86e6 4ebf 02f6 473f fe1c 32be
00000340: e23c 423f 3471 96bf 17d0 e43d 76fd f3be
00000350: e3e3 183d 1a04 f33d 4fa4 913e c76b 8e3e
00000360: 1371 ea3e c893 953e 7c13 5bbf 98fd 16be
00000370: 37a8 d3bf d525 933f 4df3 1fbf 39de 103f
00000380: fb83 8b3d aef8 c3bf 18ba e23d 6209 ecbf
00000390: 43eb 1bbf 9120 c03d c219 b93e 9736 373e
000003a0: 552b 75bf 5c24 953d ba99 71be f92c dcbb
000003b0: 0b54 b73f d391 843f 2a1f 503f 1957 833e
000003c0: 4ca7 4abf bff4 9dbe c15d 9cbd de08 bf3d
000003d0: 8775 7bbe c543 733e 212e 963e 1135 8f3e
000003e0: 7cb8 d23e 6791 28bd 480c 573e e458 2a3f
000003f0: e47b 07be 35ef 8c3f de06 17be a1da 803e
0.29564133 -0.22195752 -0.06526002 -0.6082518 -0.25494903 0.30727354 0.25037518 -0.06698795
2.0396695 -1.9918079 0.19087347 0.05144313 -1.5591477 0.9617426 -0.27178776 -0.19470204
-0.2854424 0.49310875 -0.08189951 1.146496 0.4587294 0.07004227 -0.1435531 -0.04570123
0.19533843 1.1136357 -0.1436106 -0.744594 0.17533526 -0.00039454256 -0.20286956 -0.07379829
2.0973845 0.6960795 0.15690605 -0.097935945 -0.2673668 0.0880819 -0.046087366 0.08854163
0.12937787 -0.049032617 -0.1280611 -0.14762317 -6.4910297 -1.7101829 -1.863574 -0.79273033
0.8484668 0.89168614 -0.43301046 -0.47211814 -0.43215027 0.2414142 -0.40276745 -0.5289258
-1.3725818 -1.2881453 0.31323373 0.55751836 -1.4577626 -0.14573184 -0.966874 -0.37001938
0.32790935 -1.479984 1.0946786 -2.1450229 -1.4282911 0.79288137 -0.0011725874 0.5751363
0.51085883 -0.5531236 0.41950667 0.5913032 -0.13501449 1.0301771 0.28226364 0.020858454
1.5332427 -1.7151111 1.0241584 -1.3941859 -0.04348973 0.6546002 0.061941426 0.24249718
0.53679276 -0.6979371 0.5258421 -0.27671677 -2.6067057 1.7343616 -1.1071376 0.8815873
-0.9134839 0.79923266 0.005393718 0.8901725 -0.24432063 -0.59399396 -0.18416618 -0.07624913
0.5478859 0.99008507 0.64126617 -0.58029026 -1.1150357 0.28864694 -0.06407304 0.2564005
-0.17520541 -0.64946705 -0.96919096 0.37724447 0.103787564 -0.118167914 0.37207514 -0.30717415
-0.48204353 0.8136025 -1.3371608 0.368826 0.1592862 -0.4626732 0.02582383 -0.56476855
-0.30571806 -0.5746157 -0.91444236 -0.17230867 -0.5206104 -0.18402 1.0309242 0.019662747
-1.385307 -2.2182112 -0.2462515 0.70097345 0.74696 1.483148 0.6025835 0.28576338
-0.33766708 1.0404283 -0.26480216 0.40615553 0.08207101 0.31325462 0.4458253 0.9522575
0.861662 0.17214096 -0.21750402 0.4002874 -1.5626796 -1.3375101 -1.0867547 -0.3137785
-0.06905579 0.27504587 0.5906216 2.2952244 0.65638644 -0.15884614 -0.66887504 0.25128892
0.5479249 0.9871791 -0.39631537 -0.8482623 0.21339478 1.0002489 -0.16304392 0.42468214
-0.88187546 0.44665578 -0.28765523 0.022287166 0.2530948 -0.30907053 -0.6202056 -0.47660357
-0.8733569 0.62473977 0.13351919 -0.9131244 -0.49101055 0.27277005 -0.35062402 0.13953404
-1.0980349 0.59439504 -0.8819761 -0.052645516 0.0024359229 -0.31868237 -0.005178532 -0.25816673
-0.51624376 -0.071965195 0.14717944 0.953959 1.7578117 -0.808205 0.78109753 -0.17393872
0.7587415 -1.1753297 0.111725025 -0.47654313 0.037326705 0.11866017 0.2844567 0.27816603
0.45789394 0.2921431 -0.85576606 -0.14745176 -1.653571 1.149592 -0.6248062 0.56589085
0.06812283 -1.5310266 0.11070651 -1.8440363 -0.60905856 0.093812115 0.36152464 0.17891918
-0.95769244 0.072823256 -0.23593798 -0.0067192283 1.4322523 1.0357002 0.8129755 0.25652388
-0.79161525 -0.3085079 -0.0763507 0.09327863 -0.24556552 0.23756321 0.2933207 0.27970174
0.41156375 -0.04115429 0.21000779 0.66541886 -0.13230854 1.10105 -0.14748713 0.251668

net.0.bias f4 [64]
00000000: e7da 36bf 22e0 9bbf 7d1a 793e e635 cfbe
00000010: 3da1 d23e 91fa 1f3f dd2f 63bf 5c2c 56bf
00000020: 7e00 333f b31a 10c0 4f30 4cbf 8234 d1bf
00000030: fbe6 aebf 7522 20c0 c80b 70bf 896b 94bf
00000040: 34ca bbbf 1eb2 65bf bc10 fd3e a140 78be
00000050: 6042 86bf 82a2 ddbf f035 62bf 8e21 823e
00000060: 070b 80bf 9075 aabe f75f 46bd 4c69 bebf
00000070: f0cd 3dbf 8a35 5ebe b216 dfbe 7db7 8fbf
00000080: a635 debf d13d 67bf 7c26 78bf 5e04 e7be
00000090: e3f6 1fbe ea5b 1dbe 11cb d9bf 3700 123e
000000a0: 8188 b9bf a1d2 bdbf 9180 233f 9a8f ecbf
000000b0: c5d9 743f 6d4a fdbf 4b29 873f 6de0 61bf
000000c0: 1b4c a8bd 5edb 323e bb7e 923f 2b51 25bf
000000d0: fa50 5abf beea 0fbf b676 e0bf 16de 033f
000000e0: 2c13 54bf d369 fb3f e9b2 91bd 250b f7bf
000000f0: f1d8 0b3d 5d7a a6bf 4b2b 0dc0 14dc 2abe
-0.7142777 -1.2177775 0.2432651 -0.4047081 0.4113864 0.6249171 -0.8874491 -0.8366144
0.69922626 -2.2516296 -0.79761213 -1.6344149 -1.366424 -2.502103 -0.93767977 -1.1595317
-1.4671082 -0.8972491 0.4942683 -0.24243404 -1.0489006 -1.7315218 -0.8836355 0.25416225
-1.0003365 -0.33292818 -0.048431363 -1.4875884 -0.7414236 -0.21700111 -0.43572003 -1.1227871
-1.7360122 -0.903287 -0.9693372 -0.4512052 -0.15621524 -0.15367094 -1.7015096 0.14257894
-1.4494783 -1.4829904 0.6386805 -1.8481324 0.9564479 -1.9788338 1.0559477 -0.8823307
-0.08217641 0.17466494 1.1444925 -0.6457698 -0.8527981 -0.56217563 -1.7536228 0.5151075
-0.82841754 1.964167 -0.071142025 -1.9300276 0.03414244 -1.3006092 -2.2057674 -0.16685516

net.2.weight f4 [64, 64]
00000000: b68f 873c c8a5 a3bd bf97 52bd 5cac 203d
00000010: 3be3 88be 7aa1 43be f16d cbbe c193 033e
00000020: aa56 123d fda6 a6be 975c c9be f861 e53d
00000030: 6bb2 403e db86 d3bd 0b45 82be 98a1 b0be
00000040: 1332 8dbe a28d 11bd 12d3 18bf 3df1 83be
00000050: 54dd 303d c581 e63e abb8 47bf c049 20be
00000060: 7cf0 9dbe 40d4 b4be aad3 783d fcbc 943d
00000070: f2e3 44be 146f aabe 03c8 89be 3b6a 24bf
00000080: 192d 1f3e aa23 883e 7f1e b4be 540a 9dbe
00000090: 0fd0 12bf 8b6e c73e 2f46 15bf 2e11 dabc
000000a0: d7ae 9bbe fd0b 5abe 4ecd 5dbf d116 23bf
000000b0: 8a0b 7bbd 1f29 013e 757c 20bf a4f0 a7be
000000c0: 0521 eebe 8a90 7ebe a9bd aabe 3175 83be
000000d0: 7ab1 8bbd 9307 f4be 8199 793d ce65 0fbe
000000e0: 3488 96bd 352c 07bf 7738 5dbe 923a 18bf
000000f0: 861e 51bf 7f9b 80be 374a a2be 66a8 643d
00000100: 6bdc ccbe 6974 18bf e62f 11bf 5a20 19be
00000110: 9f81 88bc 9bd7 3dbe ea08 24bf 2919 663c
00000120: be50 473d 325d bbbe 1edb 8d3d 25bd ddbe
00000130: c851 a1be efdb 9bbe 31a6 2e3e 4797 2fbd
00000140: 029a f7be c460 843e de85 01bf a4ab 8cbc
00000150: 7cca eabe 1e26 05be 1b63 efbe 9ca3 d1be
00000160: 37b1 50bf c4d2 f9be 23b0 d9be a094 e5be
00000170: d28c 3bbe ec31 00be 050c c93a d1f9 47be
00000180: 1a2d cfbe aa0e 95be e2e9 003e f4d9 e5bd
00000190: 9b1c 1dbf 45c1 87be b488 36be cded 0dbf
000001a0: a690 b53c 5dfc cebe f27f 8cbb 7c3b a2be
000001b0: 39ff d63e 618d a03b 6613 fbbe 1f94 6bbe
000001c0: 4cc6 95be 8010 cbbe 5429 31bf ef42 b63d
000001d0: 6ab0 3abe 3b45 52be adef 02bd 58fa 49be
000001e0: 4a7f 27bf 801c 41bf 79fa 893e 5220 e7be
000001f0: 455d f3be 577f 7d3d eb6f d7be 514b 4f3e
00000200: c7eb a5be a60d b2be 0a66 61be 0000 8bbe
00000210: 1474 c8be 40ae aebd 3b83 bcbd b6ad cdbe
00000220: 0292 26bd f45f 85bd bc4a 49be 4582 8bbe
00000230: b23e b5be 96c1 f23d 5398 0e3e e467 23bd
00000240: df4d 82be e5a6 c1be a658 81be 567c 6abe
00000250: 2848 b53d 4615 c6be e6d9 a93d d4bc e9be
00000260: da82 08bf c4c2 83bd 0746 c83c eb7d 323e
00000270: 19a8 df3c 3449 e1be ff8a fcbe f458 fbbe
00000280: a1aa 8139 3df6 3abe 7257 dcbd 6b0c 313d
00000290: f64d efbe 97ee 3bbe e238 90be 4705 08be
000002a0: 6bee 3cbe c79f e5bd 292e de3d 6037 a3be
000002b0: 9796 ddbc 949d bebe cbfa e43c 6a43 01bd
000002c0: 189c b0be 7ba7 d1be 7702 59be 4052 933d
000002d0: 106d c5be 4681 edbe eee1 9ebe a580 25bf
000002e0: 27ac 7fbe 10d7 5ebe 88be b7bd dcd1 b4be
000002f0: 85b9 463b dd7a c03d 239e cc3c 6004 e7be
00000300: b8bc 35bf 9317 493f f1b8 ca3e 29b8 afbf
00000310: 6d8e aebe 13c7 1fbf 0653 913d a380 8dbf
00000320: 0456 a8bf a900 0cc0 7d45 5c3e 8ba0 abbf
00000330: a964 3d3f 3e70 01bf bfbd ecbf fd88 03bf
00000340: 4f6c a3bf 87e6 b0bd 70dd cbbf 76c6 3ebf
00000350: 8667 74bf 131e 133e ad3e b0bf 02fc 81be
00000360: 3e11 c23e a142 a03c 1d06 1bbe 5c90 3ebf
00000370: 0d91 bebd ea3c b13e b0ce 16bf 3ffe 24bf
00000380: 225a 123e 221e 22bf f4e5 053d d906 0dbe
00000390: 7a2f edbe 782e 29bf 8820 06bf 808f 013d
000003a0: c146 883d 79bd 3cbe 669a b2bf 8555 fa3e
000003b0: a077 20bf b17a 5d3e 45fa 99bf 728f 27c0
000003c0: 9511 d5be 120e bc3e 2d08 173f 5826 d2bd
000003d0: 2379 a5be 4605 3d3d 6726 153d e13f 6d3e
000003e0: 8fd7 86bd fba5 263c c0d9 13c0 99ba 60be
000003f0: d361 0dbf de40 39be 6ebe 76bd 8d87 ebbe
0.016548019 -0.07990605 -0.051414248 0.039226875 -0.26735863 -0.19104567 -0.39732316 0.12849332
0.03572718 -0.32549277 -0.39328453 0.11200327 0.18818061 -0.10328456 -0.254433 -0.34498286
-0.27577266 -0.035535462 -0.5969707 -0.25769988 0.043179825 0.4502088 -0.78016156 -0.15653133
-0.30847538 -0.35318184 0.060748734 0.072626084 -0.19227579 -0.3328787 -0.2691041 -0.64224595
0.15544547 0.2658971 -0.35179517 -0.30671942 -0.5734872 0.38951525 -0.58310217 -0.02661952
-0.3040683 -0.21293636 -0.86641395 -0.6370669 -0.0612903 0.12613343 -0.62689906 -0.32800782
-0.46509567 -0.24859825 -0.33347824 -0.25675347 -0.0682096 -0.4766203 0.06093741 -0.14003679
-0.073501974 -0.5280183 -0.21603571 -0.5946437 -0.816872 -0.25118634 -0.31697246 0.05582466
-0.40011916 -0.5955263 -0.5671371 -0.14953747 -0.01666337 -0.18539278 -0.640761 0.014044085
0.048660986 -0.3659454 0.06926559 -0.43308368 -0.31507707 -0.30441234 0.17055584 -0.04286888
-0.48359686 0.25855076 -0.5059489 -0.017171688 -0.45857608 -0.13002822 -0.467553 -0.40945137
-0.8152041 -0.48793614 -0.42517194 -0.44839954 -0.18315437 -0.12519044 0.0015338665 -0.19528891
-0.40464097 -0.2911275 0.12589219 -0.11223212 -0.61371773 -0.2651464 -0.17825586 -0.5544098
0.0221637 -0.40426913 -0.004287713 -0.31686008 0.41991594 0.004899666 -0.49038237 -0.23005722
-0.2925285 -0.39661026 -0.69203687 0.08899485 -0.18231359 -0.20534222 -0.031966854 -0.19724405
-0.654286 -0.7543411 0.26948908 -0.45141846 -0.47532097 0.06188902 -0.42077574 0.20243575
-0.32406446 -0.34776038 -0.22011581 -0.27148438 -0.3915106 -0.08529329 -0.09204718 -0.40171593
-0.040666588 -0.06512442 -0.19657415 -0.27247825 -0.35399395 0.1185333 0.13925295 -0.039894
-0.25450036 -0.37822643 -0.25262946 -0.22898993 0.08851653 -0.38688105 0.08293514 -0.45651877
-0.53324664 -0.06433633 0.024447454 0.17430846 0.027301835 -0.44001162 -0.49324796 -0.49091303
0.00024731926 -0.18257995 -0.10758866 0.043224733 -0.46739167 -0.18352734 -0.28168398 -0.13283263
-0.18450324 -0.11212116 0.10848648 -0.31878185 -0.027049346 -0.37229598 0.027951619 -0.03155843
-0.3449409 -0.4094809 -0.21192347 0.07193422 -0.3855977 -0.4638769 -0.31031746 -0.6464942
-0.24968015 -0.21761727 -0.08971888 -0.3531636 0.003032298 0.09398434 0.02497775 -0.45120525
-0.70991087 0.78551596 0.39594224 -1.3728076 -0.34093037 -0.6241314 0.070959136 -1.1054882
-1.315125 -2.1875403 0.21510883 -1.3408369 0.7398172 -0.50561893 -1.8495406 -0.513809
-1.2767428 -0.086377196 -1.5926952 -0.7452158 -0.95470464 0.14366941 -1.3769127 -0.2538758
0.3790378 0.019563021 -0.15139051 -0.74439025 -0.0930501 0.34616786 -0.5890913 -0.6445045
0.14292195 -0.6332723 0.032690004 -0.13772143 -0.46325284 -0.6608653 -0.5239339 0.031630993
0.0665412 -0.18431653 -1.3953369 0.4889337 -0.62682533 0.21628834 -1.2029501 -2.6181302
-0.41614977 0.36729485 0.5899685 -0.1026122 -0.32318982 0.046147607 0.036413576 0.23168899
-0.06584083 0.010171409 -2.3101654 -0.21946181 -0.5522739 -0.18091151 -0.0602402 -0.46001855

net.2.bias f4 [64]
00000000: fbf4 b43d c230 17bf e32f 90be 22d8 173e
00000010: c221 07be 07ea 9b3d 4422 be3e fc12 073d
00000020: 4c08 bfbd fbd1 dd3d fa73 14be 0aaa 26be
00000030: 037d 323f b1dd 4abf b3d7 8a3f b0a8 413f
00000040: 45d7 59be 91de 59be ab91 733f d62c 00be
00000050: 417c 85bf 97b2 07bf 935c 24bf 29d4 c9bd
00000060: 08a1 603f a4a0 04bf c6af 913d 5714 53be
00000070: 29e2 46be 683b 4a3e 287f 0b3e d386 62be
00000080: b30d 84be 030b f9bd a434 d73f 3c1c e9be
00000090: 5ed5 0dbe ec9b 06be 7200 cfbe 7c39 83bd
000000a0: dee5 b1bd 94b7 f53f be54 fc3d 182b a23e
000000b0: 426c 4fbe cfe1 ec3f 003c 6d3e 7fd7 48be
000000c0: 239e 1d3f c360 903f 6445 113d abda 653f
000000d0: 7582 2bbf 5fe1 283f 68a2 cf3f 49be 933f
000000e0: 1603 dfbe 2edc d2bc 009e 283f 16eb 5bbe
000000f0: 383f 2ebe 421e 69bd 8b1d ee3f b5bd 693e
0.08835789 -0.59058774 -0.28161535 0.14828542 -0.13196471 0.076129965 0.37135518 0.03297709
-0.093277544 0.10831066 -0.14497367 -0.16275802 0.69722 -0.79244524 1.0847076 0.7564802
-0.21273525 -0.21276309 0.95144147 -0.12517104 -1.0428544 -0.5300688 -0.6420376 -0.098549195
0.87745714 -0.5180762 0.07113604 -0.20613228 -0.19422211 0.19749224 0.13622725 -0.22121744
-0.25791702 -0.121603034 1.681294 -0.45529354 -0.13850924 -0.13145417 -0.40430027 -0.06407449
-0.08686422 1.9196649 0.12320851 0.31673503 -0.20256141 1.8506411 0.2316742 -0.19613455
0.6156942 1.1279529 0.035466567 0.89786786 -0.66995937 0.6596889 1.6221437 1.1542445
-0.43557042 -0.025739755 0.6586609 -0.21476397 -0.17016304 -0.05691362 1.8602766 0.22826274

net.4.weight f4 [5, 64]
00000000: cf5d 823e 3738 1d3e 7b80 ef3d b2d9 02bc
00000010: 75ac f7bd aa88 afbb bdfd 6a3d 95e6 033e
00000020: a3bc a23d f604 a5bd 03ec c3be 7c0b d7b9
00000030: 16ba 91bc eeb6 21be 1dce 4b3d 47c2 613d
00000040: 9702 743e 8bd6 943e b850 a03c d46e b3be
00000050: 6186 70bc 351c 4a3b d8c5 473f 370c 643e
00000060: e655 98bc 6402 a83d 8b92 853f 0a60 983e
00000070: 2fe5 a3bd c11a 7d3c 8950 bc3d fb62 153d
00000080: 5106 5c3e 2e52 143e 0904 933d 5756 1e3e
00000090: a530 773d 2773 9ebd 6add 3cbe 661d f63d
000000a0: 8700 acbe 7c03 e73d a9da 24be 2837 34be
000000b0: 38bf a1bc 9340 2c3d fd8d 293e 1193 e43e
000000c0: 1f93 8c3e 1c49 e23d fa56 48be b2ee 3dbe
000000d0: d95e edbd 1ac5 8a3d dc54 b13d b824 9abc
000000e0: 7cf2 03be ce8d a4be 131c ae3c b87c b83f
000000f0: 3bd1 fbbd 8403 1e3e 6a23 cb3d d252 1cbd
00000100: b748 543d 75b1 dbbe c534 3abd aee9 8d3d
00000110: c788 713e 9448 ebbe 572b cd3e d813 d8be
00000120: 51a4 6e3e fe7a f4be dea1 1b3e c20a 8dbd
00000130: 4dd1 f83c 1f78 a8bd 61af 2b3f 7374 11be
00000140: 3a8e 7b3e 2ec9 df3e d838 1b3f fdfb 953d
00000150: d7ce 6a3f 386f 3abf 95fa 223e c361 b3bd
00000160: 4b89 e0bd 047f 883e 7687 73be 7832 cabe
00000170: a6ba b4be e0aa 7cbf dac1 003e a352 043d
00000180: 42a6 cdbe 2152 50be 111a 9ebe 41b2 14bc
00000190: 186c ea3e 3c18 4c3e 1c8e f3bd 67a5 dcbe
000001a0: cff1 2ebe ad73 91be 206e 31bd 2cf7 023f
000001b0: 7e35 9fbc b2d3 8a3e 8445 1fbf 95a6 8ebe
000001c0: cf21 1dbd 4bc3 b2be 8533 7d3e d38a e63d
000001d0: 545c 323e a82d 4abe 397c 41bf b239 5d3f
000001e0: 12d3 173e 919e b73d 2de3 8e3d f826 f7bd
000001f0: 8eb7 873e e997 0ebf b0af a9be 0b25 863e
00000200: edb9 aebd f7cd cabd 328a 26be a544 d1bd
00000210: 83ea 70be 12b1 fc3e 9ece 88be 4c1b 983e
00000220: 9b8f 993e a432 723d 0616 ac3e 062a 0e3e
00000230: 8363 00bd 4135 173f 40c6 2abe 0704 893d
00000240: 37c1 383e 4928 fabd cb9d 07be 46f1 adbe
00000250: d65c a2bf 5f48 1fbe f8bb 26be 964b 8cbc
00000260: f34b 943d 8dc6 83be 8dd0 24be 0de5 efbd
00000270: 024d 09bb ca13 b03f 52c8 213e 1ebb 463d
00000280: 4919 ef3d 7954 00be b1c7 7a3d 4aa8 4cbc
00000290: 402f 82be ec7e 53bd 5b9f a9be 329b e7bc
000002a0: ded0 89be c518 25bd f117 cd3e 308e 583d
000002b0: 116d 353d e64a 57be 6a7f 1dbe fe67 313f
000002c0: 8856 94bf 799a 903c 1950 ab3e 20b3 40be
000002d0: ba8e 153d 4e80 0c3e 610f cd3e 65d0 c8bd
000002e0: 430c 3ebe 7b84 343e b892 1bbe a08e 043e
000002f0: ee77 2cbd 5b95 56be 51f1 6a3e 5227 763f
00000300: 2c93 213e 4823 4bbd 80d7 733e b033 a43e
00000310: 91ba 10be e35d acbe 5b48 5abf 053f eebd
00000320: 1e37 79bd b74f 243e 552f 9abd 4f2a 983e
00000330: 191f dfbb a630 e1be 8082 b5be 537b 9e3d
00000340: a0c7 933e 0eaf 4bbe 4b37 0cbe 48b8 aebe
00000350: cf1a 483d b5e1 a0be 501a c8be 5f5f 1a3e
00000360: a41e f33d 5a34 353e 3ccb eebe fc35 3a3e
00000370: 03ee 91bc 170a 2dbd a61e f63e 669e c43e
00000380: 231e a4ba 7c25 003e 7815 b13e 753b efbe
00000390: 8738 c13e be8d 9dbe 6996 4f3e 6602 863e
000003a0: 4057 1f3b d50a ef3e 08a7 09be 30f0 a2bd
000003b0: 4389 b73d ab8d dd3c 1762 263f 2067 713b
000003c0: 99d2 143e e5ea e63e be70 f5bb 7a46 0b3f
000003d0: 4309 96be 33b1 003e 33f2 d5be fb31 14bf
000003e0: 10af 18be 8903 013f 88ed 053e 7152 2cbf
000003f0: d03b b0be 9ad7 ae3e 9556 1d3e a0b4 8dbf
0.25462195 0.15353476 0.116944276 -0.007986473 -0.120934404 -0.005356868 0.05737089 0.12880929
0.07946136 -0.08057587 -0.38266 -0.00041016552 -0.017788928 -0.15792438 0.04975711 0.055116918
0.23829113 0.29069933 0.01956974 -0.35045493 -0.014680476 0.0030839567 0.7803626 0.22270285
-0.018595647 0.08203581 1.0435346 0.29760772 -0.08002698 0.015448273 0.09195048 0.03647135
0.21486785 0.14484474 0.07178504 0.15462624 0.060349125 -0.07736807 -0.18443838 0.12017326
-0.33594152 0.112799615 -0.16099037 -0.17599165 -0.0197445 0.04205377 0.1655807 0.44643453
0.27455994 0.11049101 -0.19564429 -0.18548086 -0.115903564 0.067758754 0.08658764 -0.018816337
-0.12885469 -0.32139438 0.021253621 1.4413061 -0.12295767 0.15431029 0.09918864 -0.03816492
0.05182716 -0.42908826 -0.04546048 0.069293365 0.23587333 -0.4595381 0.40072128 -0.4220264
0.23304869 -0.47750086 0.15198466 -0.068868175 0.03037324 -0.08226036 0.6706448 -0.14204578
0.24565974 0.43708175 0.6063361 0.073234536 0.9172186 -0.72825956 0.15915902 -0.08758881
-0.109636866 0.26659405 -0.23782143 -0.3949163 -0.3529865 -0.98698235 0.12573949 0.03230537
-0.40165907 -0.2034383 -0.30879262 -0.009075702 0.45785594 0.1993112 -0.118923396 -0.43094942
-0.1708443 -0.28408566 -0.043317914 0.51158404 -0.019434687 0.27114636 -0.6221545 -0.27861467
-0.03836232 -0.34914622 0.24726684 0.11256947 0.17418033 -0.19743979 -0.75580174 0.8641616
0.1482661 0.08965791 0.06976924 -0.120679796 0.2650723 -0.55700547 -0.3314185 0.26200137
-0.08531556 -0.09902566 -0.16263655 -0.10218171 -0.23526959 0.49353844 -0.26720136 0.29708326
0.29992375 0.059130326 0.33610553 0.13883218 -0.0313449 0.59065634 -0.16677189 0.06690221
0.18042456 -0.12214715 -0.13243787 -0.3397314 -1.2684581 -0.15554951 -0.16282642 -0.017125886
0.07241049 -0.2573742 -0.16095181 -0.1171361 -0.0020950441 1.3756039 0.15799072 0.048518293
0.11674745 -0.12532224 0.061225597 -0.012491295 -0.25426674 -0.051634714 -0.3312939 -0.028272245
-0.26917166 -0.040306825 0.40057328 0.052869976 0.044293467 -0.21024665 -0.15380636 0.69299304
-1.1588907 0.017651783 0.33459547 -0.18818331 0.036513068 0.1372082 0.40050796 -0.09805373
-0.18559365 0.17628662 -0.15192688 0.12945032 -0.04210656 -0.20955412 0.22943617 0.9615375
0.15778798 -0.049594194 0.23812675 0.32070684 -0.1413367 -0.3366538 -0.85266656 -0.11633114
-0.06084358 0.16046034 -0.07528559 0.2971978 -0.006809127 -0.43982428 -0.35451126 0.07738366
0.2886324 -0.19890997 -0.13692968 -0.3412497 0.04885369 -0.314222 -0.39082575 0.15075444
0.118710786 0.17695752 -0.4663943 0.18184656 -0.017813688 -0.04224595 0.48070258 0.38402098
-0.0012521188 0.12514299 0.34586692 -0.4672505 0.3773844 -0.30772203 0.2027222 0.26173705
0.002431348 0.46687952 -0.13442624 -0.079559684 0.089617275 0.027045092 0.64993423 0.003683515
0.14533462 0.45101085 -0.0074902466 0.54404414 -0.2930394 0.12567596 -0.41786346 -0.57888764
-0.14910531 0.5039602 0.13078892 -0.67313296 -0.34420633 0.34148866 0.1536506 -1.1070747

net.4.bias f4 [5]
00000000: 5005 56c0 a474 0740 b3cb cfbf 744d d53f
00000010: ac36 66bf
-3.3440742 2.1164942 -1.6234039 1.6664262 -0.8992717

net.0.weight f4 [64, 16]
00000000: a6d3 da3c 5652 85bd 8693 0c3f 57c3 d1bf
00000010: a520 04bf 4ec7 803e 81b3 92be 78a1 e93e
00000020: 744c 533f 8787 04c0 43a0 fa3e 8f8c ccbe
00000030: 20dc 63bb 5769 c23e df9a 023d c485 ac3d
00000040: 5eda 683e 8a5e 10bf d586 5c3d 0f36 34be
00000050: cf8f 90be 172f 5fbe 2dc8 573e 494a 4bbe
00000060: 4a9e a1bc 1394 0fbf 0caf f2be aa8f 9e3e
00000070: d507 2c3f e00d 193f c1aa 293f 2bcc b8be
00000080: a07e 743f ce20 643e b243 5a3f 2a1e 19bf
00000090: ea2b acbe 01b1 e03e ddde 0d3c 38a7 04bf
000000a0: f1f6 e3be 70a1 a9bf 4348 4bbf 4b5b c1be
000000b0: aedd f03f d2f6 853f 3b1f 1f3f 3ccf 423e
000000c0: b8cd 153e ee9f efbe 87e8 813e 2a5d 3d3f
000000d0: 1a65 1f3e 3992 903e 693a 8a3c 5052 f63e
000000e0: d742 6b3e 79f8 6d3d ab9b 043e 52e3 f13e
000000f0: 2d84 18bd 49ce b3be 4bed 38be ce64 8fbd
00000100: a70f 93be fa71 583f 4187 b4be e2bd 733f
00000110: 06b3 0a3e aa80 babe a64d 1d3f 447e 6cbe
00000120: a588 a33e 2efd 1c3f d596 4dbf 72f3 cd3e
00000130: e001 d93e 021a adbe c558 3f3e 1f29 8b3e
00000140: d6f1 abbd bde9 273d 181a cabf 61d5 92bf
00000150: 83e5 5abb 1a6a 303e f428 a8be d79e a9bc
00000160: 8e36 bbbf a659 2abf 0f44 083e 2209 8dbf
00000170: d194 f1be 2571 483f a2ba dfbe 985d 9c3e
00000180: b8dd f1be ff4f 203f 1b69 91bf c88b efbc
00000190: a6ac 99be bc1d 26be dc0b 683e fd8c 8fbe
000001a0: 9c9e 29bf 6873 1d3f 3bc3 a93e 65f2 2ebf
000001b0: eb67 d2be af9a 07bf e4a5 bcbc d050 b3be
000001c0: fd64 803e 4ce9 a8be 4103 2fbf c7d5 663d
000001d0: eb10 483e aa89 14be 0a23 553d 7f43 a7be
000001e0: 06a8 83be 0866 043e 86a3 d5bf 24c5 053f
000001f0: a0b9 903f 5538 debe 341e 973e a619 3f3e
00000200: 0189 80be 0522 e73e e138 c0bd 489a 423e
00000210: bf26 5abd 69a8 883d 5bbf 083e 8684 d6be
00000220: 5b06 18c0 3b56 e13d 14b2 8d3e 29d6 dabe
00000230: 805f 1b40 bb2f 573e 8484 1c3f e4d2 d8bd
00000240: f0c7 f3be 2a43 803f 566e 2b3e e213 b33e
00000250: 2429 b0be f791 133f 1316 62bf e479 1cbe
00000260: 8f7b 35be c69e 2c3e ca2e 5b3e 7376 85bf
00000270: 3955 853f 70b2 aabe 3c10 923f ebf0 01be
00000280: 4b7e d8be 16f2 ee3e 6612 cd3d 8e70 273f
00000290: 67a6 09bf c825 f23d c30e 6a3e 29a3 e2be
000002a0: 566b ac3f 1ba4 c8be 4f32 a3be fd2c 943f
000002b0: 6666 3f3e 154e 84bc 0a4b cdbe e1d8 6fbe
000002c0: 2851 3ebf 21ff 473e 2216 89be b3b3 f53e
000002d0: 3034 3fbc 061a b9bd 1edf d6be 6dbd 353f
000002e0: 7fd5 3d3f 4d1d 09bf 3b70 443f c8b5 2d3f
000002f0: 216b c1be 3e51 31be 3161 96be 089f 303d
00000300: ad1d 53bf 35b0 0fbf e73d 2f3c 2c0a fbbe
00000310: 0c31 223d 0919 b63e 4908 b6be d5e1 a03f
00000320: a59d fa3d dd33 8abf 54f7 a33f 0c93 44bf
00000330: a91b c43d a5b0 c4be c0e5 03bf 8b25 293e
00000340: 031e a5bf a3f3 22bf 8450 9dbf 771a 593f
00000350: 78bf 353e 9c07 babd 80be c2bd d3ed b83f
00000360: 8836 443e 9a5e febd 7666 f4be cc0e 8b3f
00000370: 7b8c 963b e7a3 bebf 5cbe 183e 5ae3 2cbf
00000380: 6aad 553f 277b 0f3d dda0 ba3f 91d1 44bf
00000390: ab76 c7be ae53 d03e 55b8 3e3e 6499 37be
000003a0: 14f9 863e 02f3 343f 27a6 943d 107d 4ebe
000003b0: f3d0 a13f 8c39 dcbf 4df7 083f 1f37 bdbf
000003c0: d8c3 81bf 2078 e7bd a73f abbd e0b6 953f
000003d0: 7fd3 e53e b631 0cbf 2bf0 cabe 2775 453f
000003e0: ede3 0cbf f1a4 b33e 00e0 183f 071b 173f
000003f0: 3957 82bc 735d 7f3f d1d6 e9bc 19ce 2b3e
0.02671225 -0.06509845 0.549126 -1.6387738 -0.5161231 0.25152057 -0.28652576 0.45631003
0.82538533 -2.070772 0.48950395 -0.39950988 -0.0034768656 0.37970993 0.031885978 0.08423951
0.2273955 -0.56394255 0.053839523 -0.17598747 -0.28234717 -0.21795307 0.21072455 -0.19852556
-0.019728798 -0.5608532 -0.47399175 0.30968982 0.6719945 0.59786797 0.66276175 -0.36093268
0.95505714 0.22278139 0.85259545 -0.5981165 -0.33627254 0.43885043 0.008659092 -0.51817656
-0.4452434 -1.3252392 -0.7940714 -0.37764964 1.8817651 1.0465949 0.6215703 0.19024366
0.14629257 -0.46801704 0.25372717 0.7397028 0.15565911 0.2823656 0.016873555 0.48109674
0.22974716 0.05809829 0.12950008 0.47243744 -0.037235428 -0.3511832 -0.1805927 -0.07001649
-0.2872288 0.84548914 -0.3525944 0.95211613 0.13544855 -0.36426288 0.6144661 -0.23095042
0.3194019 0.6132382 -0.80308276 0.40224797 0.42384243 -0.33808905 0.18686207 0.2717981
-0.08395736 0.040994395 -1.5789213 -1.1471368 -0.003340096 0.17227975 -0.32843745 -0.020705624
-1.4626024 -0.6654304 0.13307212 -1.1018412 -0.4718385 0.78297645 -0.43697077 0.30540156
-0.4723947 0.62622064 -1.1360201 -0.029241458 -0.30014533 -0.1622228 0.22660774 -0.28037253
-0.66257644 0.6150422 0.33156762 -0.68338615 -0.41094908 -0.52970403 -0.023028322 -0.35022593
0.25077048 -0.3299049 -0.6836434 0.056356218 0.19537704 -0.1450564 0.05203537 -0.32668683
-0.2571413 0.12929547 -1.6690528 0.5225394 1.1306648 -0.43402353 0.2951523 0.18662128
-0.25104526 0.45143142 -0.09385849 0.19004166 -0.053259607 0.06672747 0.13354246 -0.41897982
-2.375388 0.11002775 0.27674925 -0.42741516 2.4277039 0.21014301 0.611397 -0.10587099
-0.47613478 1.0020497 0.16741309 0.34976107 -0.34406388 0.576446 -0.8831493 -0.15280873
-0.17722915 0.16857442 0.21404567 -1.0426773 1.0416633 -0.33339262 1.1411204 -0.12689559
-0.42283854 0.46669072 0.10013275 0.6540612 -0.53769535 0.118236125 0.22857194 -0.44265106
1.3470256 -0.39187703 -0.3187432 1.1576229 0.18691406 -0.016150514 -0.40096313 -0.23422576
-0.74342585 0.19530918 -0.26774698 0.47988662 -0.011670157 -0.09038167 -0.419671 0.70992166
0.74153894 -0.53560334 0.7673375 0.678555 -0.37777045 -0.17316148 -0.29371026 0.043120414
-0.82467157 -0.56128246 0.010695911 -0.49031198 0.039597556 0.35565975 -0.35553196 1.2568918
0.122370996 -1.0797077 1.2809854 -0.76786876 0.09575588 -0.3841602 -0.51522446 0.16518228
-1.2899784 -0.6365301 -1.2290196 0.8480601 0.17748821 -0.090834826 -0.09508991 1.4447578
0.19161427 -0.124203876 -0.47734421 1.0863891 0.0045943833 -1.4893769 0.14916366 -0.6753441
0.83467734 0.035029557 1.4580342 -0.7688227 -0.38957724 0.40688843 0.18625005 -0.17929608
0.26361907 0.706833 0.072582535 -0.20164895 1.2641891 -1.7205062 0.5350235 -1.4782447
-1.0137892 -0.11302209 -0.0836175 1.1696434 0.4488792 -0.5476335 -0.3963636 0.77131885
-0.5503529 0.35086778 0.59716797 0.59025615 -0.015910732 0.9975197 -0.028544815 0.16777839
